wd_99.pth (torch, 587335 bytes, 10 tensors)

weight f4 [32, 3, 5, 5]
000000 ab a8 8d 3e 78 ed 84 be e8 24 c9 3e 0e c7 f7 bd
       0.27667746 -0.25962424 0.3928597 -0.120985135
000010 5a e4 eb 3c 83 2f 8c 3d fa bc 7c be 63 aa 7b 3e
       0.02879541 0.06845 -0.24681464 0.24576716
000020 16 7f f9 be e6 d2 f2 bd 5d 0c 9b 3e 39 8b eb be
       -0.4872977 -0.11856632 0.3028287 -0.46004656
000030 87 c3 a4 3e 76 e0 ae be 90 31 b8 3d 4e 14 9a 3e
       0.32180426 -0.34155625 0.08993828 0.30093616
000040 d4 38 8d be 5f fd 04 3f 67 50 37 bd 35 00 74 3e
       -0.2758242 0.51949114 -0.044754412 0.23828204
000050 67 56 9f 3c 55 7c e7 be 87 cc da 3d 20 8c a2 be
       0.01945038 -0.45212045 0.10683542 -0.31747532
000060 3e 87 0a be ef 03 1b 3e 9f 4a 45 be f6 5a f2 3e
       -0.13528153 0.1513822 -0.19266747 0.47335023
000070 ac 35 92 bd c3 15 84 3d 41 3a 50 3d af ec dc be
       -0.07139143 0.06449463 0.050836805 -0.43149325
000080 3c 86 33 3e 58 fd bf be 01 fd df 3d 06 d3 3b 3e
       0.17531675 -0.37497973 0.109369285 0.18342218
000090 c6 42 e3 be 45 d1 00 3f 69 8f c1 be 03 c6 15 3e
       -0.44386882 0.5031932 -0.37804726 0.14626317
0000a0 ee f4 bc 3e 61 61 e7 bd cc f5 07 3f d2 2b e5 bd
       0.36905617 -0.112978704 0.5310943 -0.11189999
0000b0 90 fb b8 3e 54 f8 25 bb 45 df b5 be ec 01 9c 3e
       0.36129427 -0.0025325017 -0.35521904 0.30470216
0000c0 62 cd 9f be 87 e0 35 bc 8f 88 18 3e 23 e1 71 be
       -0.31211382 -0.011100895 0.14895843 -0.23621039
0000d0 bc 1c 67 3e 9b 76 05 be c0 6f 34 3e 2d ca 22 3d
       0.22569555 -0.13033526 0.17620754 0.03974359
0000e0 f3 7d 98 be 43 10 af 3e c9 78 9d be 84 50 a9 3d
       -0.29783592 0.34192094 -0.30756214 0.0826731
0000f0 c7 bd 8d 3e d6 30 cc be 0f d2 a3 3e 9f 18 83 be
       0.2768385 -0.3988101 0.319962 -0.25604722
000100 10 cc 8c 3d ea 58 4d 3e 9b 0f 3b be 3a 0d a0 3e
       0.06874859 0.2005345 -0.18267672 0.3126009
000110 0f 9c 6c be 36 4e a5 3d b5 69 71 bd 16 60 d5 be
       -0.23106407 0.08071558 -0.0589387 -0.4167487
000120 be 57 5c 3e cd 6c c8 be bd 5b 3c bc 7f 5f 42 be
       0.21517846 -0.39145508 -0.0114964815 -0.18981741
000130 7a 7a 9a bb 1c e5 5a 3c e0 8c c6 be 41 97 02 be
       -0.0047143074 0.013360288 -0.38779354 -0.12753011
000140 3e 81 8b bc ee 7a 76 bd 97 6b a9 bd 11 b9 b8 be
       -0.0170294 -0.06017583 -0.08272474 -0.36078694
000150 03 9e 0e 3e 46 f3 a7 3c 1b 51 ed b9 14 59 53 3e
       0.13927464 0.020501744 -0.0004526459 0.2063945
000160 f8 05 29 be 21 33 06 3b b2 58 30 3e ed cb 58 3d
       -0.16506183 0.0020477253 0.17221335 0.052928854
000170 c3 d1 12 bc b2 37 42 be ec ad 60 3d 0b b2 dc 3d
       -0.008961144 -0.18966559 0.054853365 0.107761465
000180 17 a7 51 3e a6 5a b1 3e 4b 99 f2 bd 57 f3 45 3e
       0.20473896 0.34639472 -0.118456446 0.19331108
000190 4f 9f b3 bc 63 3d f3 3d b5 5c 21 3e 50 a9 84 be
       -0.02192655 0.11876943 0.15758021 -0.25910425
0001a0 31 17 55 bd 44 3a eb bc fe 5b 60 3e 70 e2 41 3e
       -0.05202407 -0.028714307 0.21910092 0.18934035
0001b0 73 e9 e5 3a b2 d1 5f 3e a5 e8 05 be 74 63 fd 3d
       0.0017540887 0.21857336 -0.13077028 0.12372485
0001c0 9c a0 af 3e 31 74 a9 3d a7 14 66 3e eb 04 98 be
       0.34302223 0.08274115 0.22468816 -0.29691252
0001d0 da 2a 8d be 7b e0 b0 bd 2b b8 c9 be c3 12 ca bc
       -0.27571756 -0.08636566 -0.39398322 -0.02466715
0001e0 cb 04 d8 3c a1 f6 a1 bd 60 9d 94 3e 8f 98 2a be
       0.026369473 -0.07908369 0.29026318 -0.16659759
0001f0 49 c5 fd 3d 4e 36 4b 3d c1 da 15 3d ee 84 1b 3e
       0.12391145 0.049612336 0.036585573 0.15187427
000200 e2 0d a5 bd cf 2c c6 3c c6 e9 02 3d 6f 6e 05 3e
       -0.080592886 0.024191288 0.031961225 0.13030408
000210 38 d0 17 3d 2b af 70 bd 6c 81 6a 3e 4c 07 58 be
       0.037063807 -0.058760803 0.22900933 -0.21096534
000220 84 75 11 be 39 7c 3e 3e 5d 08 25 3e 40 88 96 3e
       -0.14204985 0.18602075 0.16116472 0.29400826
000230 78 63 88 be b1 28 99 be 02 45 35 be ca 97 96 be
       -0.2663839 -0.29913858 -0.17702106 -0.2941268
000240 46 0b 32 be c4 61 0d be 2b 7b 6d 3c 84 0d 17 3e
       -0.17387113 -0.13806826 0.014494698 0.1475125
000250 4c 65 d0 bd d3 36 59 3e 3a 83 a3 3d 69 5f 7e be
       -0.10175571 0.2121232 0.07984014 -0.24841084
000260 55 fb 0e be 03 87 9e 3b 09 47 3b 3d 13 1d bc 3e
       -0.13963063 0.004837872 0.04572204 0.36740932
000270 db f1 73 bd d7 4a be be c9 17 9f 3e c0 5c 61 bd
       -0.059556823 -0.37166473 0.31072834 -0.055020094
000280 0c b6 ad 3e 4f 9f 8c 3d e9 75 0d bf af c1 c6 3e
       0.33927953 0.06866323 -0.5525804 0.38819644
000290 eb 57 5a bd 0f 38 8f 3e 4e ec c7 3c ee 03 b4 be
       -0.0533065 0.27972457 0.024404671 -0.35159248
0002a0 6d f8 ea 3d ff 0c 9b bd c9 b2 18 3e 16 4f d6 ba
       0.11473165 -0.07570838 0.14911951 -0.0016350474
0002b0 42 87 73 be ba 9e fd 3b a3 0c fd 3c 60 d5 2b 3e
       -0.23782066 0.007739869 0.030889815 0.16780615
0002c0 2f 42 4e be 19 e3 1c be d0 20 d2 3d 4a f5 a0 ba
       -0.20142435 -0.15321006 0.10260165 -0.0012280133
0002d0 d7 d0 b5 3e f1 73 56 be cb a7 e8 be a3 4b 92 3e
       0.35510895 -0.20942666 -0.45440516 0.2857333
0002e0 8f 6a 89 bc f7 90 e5 3e 24 9e 6b bd 19 15 23 bf
       -0.016774444 0.44837162 -0.05752386 -0.6370407
0002f0 00 09 16 3e 90 e9 b5 bd 6a f6 a4 3e 63 2f 29 3d
       0.1465187 -0.08882439 0.3221925 0.041304957
000300 ac e2 c4 be 94 7c 36 3e 71 3a 26 3d 91 9f fc 3d
       -0.38454187 0.1782096 0.040583078 0.123351224
000310 08 1b ce 3d ee 54 5d be 93 59 b9 bc 22 3f 05 be
       0.100637496 -0.2161443 -0.02262572 -0.13012365
000320 75 de 21 3e 1a 25 73 bd df c2 2c be 8b 67 96 3b
       0.15807517 -0.059361555 -0.16871212 0.00458998
000330 e8 71 1a bc 82 6e 81 3e b9 db a3 bd 82 25 a4 be
       -0.009426571 0.25279623 -0.08000893 -0.32059866
000340 d8 ab 78 3e 9f c8 b3 3d aa 7b cd 3e fa b3 76 bd
       0.24284303 0.087785 0.4013341 -0.060230233
000350 3c 46 01 bf a1 ff 9e 3e f0 6d ec 3d 0a b7 b0 3e
       -0.50497794 0.31054404 0.115444064 0.34514648
000360 d9 94 73 bd 54 90 dc be 79 61 3a 3e a6 7a 5d 3d
       -0.059468124 -0.43078864 0.18201245 0.054072045
000370 82 81 45 3d cd 47 fa 3d 90 d8 9e be 40 ad 03 3e
       0.04821921 0.12220726 -0.310246 0.12859058
000380 67 72 4a 3c ce 3c 85 bd b5 ed 73 3e 51 fe 6a be
       0.012356377 -0.06505738 0.23821147 -0.22948577
000390 e0 4e c7 bd 75 49 50 bd 60 15 35 3c 46 69 ab 3e
       -0.09731841 -0.050851304 0.0110524595 0.33478755
0003a0 52 7c 84 3c d8 43 1c 3e 79 30 a7 3c b0 5b e6 bc
       0.016172562 0.15260255 0.020408856 -0.028119892
0003b0 17 ce 4d be df ea a4 3d 34 ab 3b 3e 30 39 97 be
       -0.20098148 0.080526106 0.18327028 -0.29535818
0003c0 f0 34 73 3e 72 a4 90 3b e7 83 0a 3e 33 15 4a bc
       0.23750663 0.0044141347 0.13526879 -0.012334156
0003d0 9f 3f 93 be 53 8b 77 bd 4f 90 14 be 48 18 a7 ba
       -0.28759477 -0.060435604 -0.14508174 -0.0012748325
0003e0 9e d6 ad bc 21 96 43 be af 07 a3 bd 2e 88 84 3d
       -0.021220502 -0.19100238 -0.0796045 0.06471287
0003f0 03 5b 26 be 16 d5 4c 3e b6 31 39 3c 47 dc 41 be
       -0.16245656 0.20003161 0.011303356 -0.18931685

bias f4 [32]
000000 20 79 16 be d8 f9 34 be 0a 27 72 be 7b 6a 52 be
       -0.14694643 -0.17673433 -0.23647705 -0.20548432
000010 84 9f 05 be b8 a3 30 be d2 3b c3 bd 66 40 a9 bc
       -0.13049132 -0.17249954 -0.09532894 -0.02066059
000020 73 68 5f be 66 5f 94 be a4 08 3d be 98 96 60 3d
       -0.21817188 -0.28979033 -0.18460327 0.054831117
000030 98 84 95 be 3a e4 70 be 5a dc ba be 43 59 a1 be
       -0.29202724 -0.23524562 -0.3649624 -0.31513414
000040 d4 b4 a0 be e6 31 87 3d e0 33 10 bd 91 db 98 be
       -0.3138796 0.06601314 -0.03520572 -0.29855016
000050 cc c2 0b be 13 16 c1 be 84 69 7f be 29 6b 35 be
       -0.13648528 -0.37712154 -0.24942595 -0.1771666
000060 b4 f2 25 be e2 2d 06 bf fd d2 bd be 7b d2 77 be
       -0.16205865 -0.5241376 -0.37075034 -0.24201386
000070 51 9b 66 be 1b 32 34 3e a7 f9 e6 be 0b 0a b0 be
       -0.22520186 0.17597239 -0.45112345 -0.34382662

weight f4 [32, 32, 5, 5]
000000 f1 f8 a0 3d 06 86 97 3d cb ee 5f 3c b6 4d 98 3d
       0.07859982 0.0739861 0.0136677725 0.07436697
000010 be 81 d4 bc a2 6e 8a bb 48 02 78 bc 1d 0b a5 3c
       -0.025940772 -0.0042246142 -0.015137263 0.0201469
000020 05 96 6b bc 77 35 e8 bc 2b a8 81 3c ed c7 8d bd
       -0.014379029 -0.028345807 0.015827259 -0.069228984
000030 d6 03 c7 3d 22 82 ea bc 31 75 6c bd 33 a4 8d bb
       0.097175285 -0.028626505 -0.05772895 -0.0043225526
000040 74 fc ab 3c 7c 72 77 3d 53 8c 12 bd b7 96 9a bd
       0.020994402 0.060411915 -0.035778355 -0.07548278
000050 b8 19 ce bd 2b 94 62 3c da 30 37 3b 9f 71 9d bd
       -0.10063499 0.013829271 0.0027952702 -0.07687687
000060 2a 6b 68 bd 3c cf f0 3c ee 41 62 bb f2 dc 81 bc
       -0.056742825 0.029395692 -0.003452416 -0.015852425
000070 8d c2 84 3c 3a 11 bf 3d 11 08 52 3c a3 88 4b 3c
       0.01620605 0.093294576 0.012819306 0.012422713
000080 49 22 3d bd 5a db 66 3c 67 4f af 3d d5 ac aa bd
       -0.046175275 0.014090383 0.08560067 -0.08333746
000090 f6 cb 25 3d 21 c3 21 bc 41 d5 83 bd 53 13 25 bd
       0.040477715 -0.0098731825 -0.06437159 -0.040301632
0000a0 a9 6c 78 bc a6 ea ac 3d b7 a4 99 3d 8a f6 eb bb
       -0.015162625 0.08443193 0.0750212 -0.0072010206
0000b0 cb cc 5a bd a3 ee ac bc bb 42 ea 3d af ee 32 3c
       -0.053417962 -0.021109885 0.11438509 0.010921164
0000c0 ee a9 ef 39 37 a3 f8 bc 8d 97 6a 3c 9c fe f4 bc
       0.0004571224 -0.030351264 0.014318359 -0.029906563
0000d0 d0 f0 73 3d f1 04 d2 bd f0 fd 77 3d 45 a3 d5 bd
       0.05955583 -0.10254849 0.060544908 -0.10431532
0000e0 39 1f 3c 3d 17 b8 94 bd 2b cd f4 bd 08 1a 73 bd
       0.045928214 -0.07261675 -0.11953195 -0.059350997
0000f0 3f 64 87 bc b7 c1 c3 bd dd 29 c2 bd 98 81 dc bd
       -0.016527293 -0.095584325 -0.09480641 -0.107669055
000100 11 62 1c be c2 ba 0b 3e 82 80 73 3c c8 8c d5 3d
       -0.15271784 0.13645461 0.014862182 0.104272425
000110 db 58 b6 3b 64 c1 d5 3d 89 b3 1d bd 7d 48 bd 3c
       0.0055647916 0.10437277 -0.038501296 0.023105854
000120 61 65 54 bd ec 8a e2 3c e2 2f ca bd 84 52 09 bd
       -0.051854495 0.027654134 -0.09872414 -0.03352596
000130 35 72 8f 3c 52 ba d2 3c 1f 1a 38 bc 2e 2e 9b bc
       0.017510513 0.02572361 -0.0112366965 -0.018942919
000140 d9 7a 67 bc d8 46 0f 3d b1 9b 1f 3b e8 91 c7 3c
       -0.01412841 0.03497967 0.0024354274 0.024361566
000150 39 eb dc bc e2 8a 86 3c 03 26 10 3d 9a f8 9f 3c
       -0.026967632 0.016423646 0.0351925 0.019527722
000160 b6 9a 8d 3d 4e 89 3a 3d f5 9f 30 bd 3f 01 a8 3d
       0.069142744 0.0455411 -0.043121297 0.08203363
000170 8b 48 86 3d d5 22 31 3c 61 ea d6 3c 97 55 a4 bd
       0.06556805 0.010811527 0.026234807 -0.080241375
000180 3f f1 cf 3c 62 45 cf 3c 76 36 0a 3d af ec 89 3d
       0.02538359 0.025301639 0.033743344 0.06734597
000190 9b 22 3f 3d 8f 6c eb bc ed 23 82 bd 49 3a 07 bd
       0.04666386 -0.028738288 -0.063545085 -0.03301457
0001a0 34 68 0e 3d 70 c9 ae bd 31 e0 4a bd d1 51 b4 bc
       0.034767345 -0.08534515 -0.04953021 -0.02201167
0001b0 31 01 64 bd 6c 5a 91 bd 14 8d 0a 3d 50 12 08 3e
       -0.0556652 -0.07097325 0.03382595 0.13288236
0001c0 ef c9 dc 3d 7a 3a 87 3c 8a ac 75 3c ee 9a 47 3d
       0.10780703 0.016507376 0.01499475 0.048731737
0001d0 d7 e7 7d 3d d3 16 93 3d 1b 49 58 bc c8 88 44 bc
       0.061988678 0.07182088 -0.013201023 -0.011995502
0001e0 a4 80 db 3c 01 38 6b 3d 0d 72 23 3d 78 79 d5 bb
       0.026794739 0.057426456 0.03990369 -0.0065147243
0001f0 03 ee 43 ba 68 af 8c bd af 52 17 bd 78 ec fa bd
       -0.0007474126 -0.068693936 -0.036944088 -0.12252134
000200 e8 d3 c3 bd cc 73 80 bd 73 47 00 bd c1 7b 28 bd
       -0.09561902 -0.062720865 -0.03131814 -0.041133646
000210 1e f4 5e 3d 89 7e 8b bc 46 d9 73 bd 4d 14 af bd
       0.054432027 -0.01702811 -0.05953338 -0.08548794
000220 e4 f5 4c 3d 9c 36 15 3d be be af 3d af ac d3 3c
       0.050039187 0.036429033 0.08581303 0.025839178
000230 ee d5 bc 3b 66 87 21 3c 22 18 9d 3d ea fd 33 3e
       0.005762807 0.009858942 0.076706186 0.1757733
000240 1e 4f a0 3d 7e 58 92 bc ce 56 b4 3c 1a 97 f6 3c
       0.078275904 -0.017864462 0.022014048 0.030101348
000250 13 80 d7 3d dd 3d a1 bb e7 74 07 bd 5f 21 0f bd
       0.10522475 -0.0049207048 -0.03307047 -0.034943935
000260 2e 03 c6 bc 75 d7 f3 bc 22 82 a2 ba ac a7 bc bd
       -0.024171438 -0.029765824 -0.0012398402 -0.09211668
000270 6e 3f 4f bd 25 d2 d7 bc a6 66 6e bc 89 6c 3d 3d
       -0.0505976 -0.026345322 -0.0145508405 0.046246085
000280 98 40 f0 3d 02 99 e3 bc f4 1e ce 3c be 60 c7 3c
       0.1173107 -0.02778292 0.025161244 0.024338122
000290 cb bf 23 3d d7 a5 5b 3d 01 ab 10 3d 2e ce ad 3c
       0.03997783 0.053624954 0.035319332 0.021216478
0002a0 23 59 5c bc 74 44 c9 3c 93 a3 3b 3d 00 df f5 3d
       -0.013448986 0.024568774 0.045810293 0.120054245
0002b0 08 1f 99 3b 46 02 22 bc 12 81 13 3d ec 5a 45 bd
       0.0046728887 -0.009888237 0.036011763 -0.048182413
0002c0 b7 d6 30 bb cd 88 05 be 69 b4 c6 bd 4a a2 42 bd
       -0.0026983449 -0.13040467 -0.09702379 -0.047518052
0002d0 ba df ab bc 5f 4b 82 bd e2 4e 5b bd 76 2a 98 bc
       -0.020980705 -0.06362032 -0.053542025 -0.018574934
0002e0 3b ba 4d bc d9 27 44 3d 8c c8 4f 3d c5 72 ca 3d
       -0.012556608 0.047889564 0.050728366 0.09885172
0002f0 e5 2b 62 3d 06 07 5f 3d aa f5 3e bc 05 40 03 3e
       0.055217642 0.054450057 -0.011655251 0.1281739
000300 fa d9 08 3d 06 2a b5 b9 21 50 84 bd 6b 0c b4 3c
       0.033411004 -0.0003455432 -0.06460596 0.021978578
000310 80 31 4c 3c dd 63 29 bd ea e1 8b bd b8 f7 db bd
       0.012462974 -0.041355003 -0.06830199 -0.10740608
000320 5a a6 77 bd e6 5b 12 3d 6d bd ae 3d 1f 84 ae 3d
       -0.06046138 0.035732172 0.08532224 0.08521294
000330 13 65 f8 3c 13 8d b5 bd c2 5c 8c bd fe 00 6b bd
       0.030321633 -0.088647984 -0.0685363 -0.057373993
000340 f8 69 0c 3d 48 f3 e1 3d 98 d3 28 3d b7 b0 01 3d
       0.034280747 0.1103273 0.041217417 0.03166267
000350 2e b2 da ba 95 ea 52 bd 48 84 be 3c 76 28 ab 3d
       -0.0016685182 -0.051493246 0.023256436 0.08357327
000360 86 a9 fe 3a bc 06 36 3d 71 2d 07 3b eb 7c e8 3c
       0.0019429184 0.044440016 0.002062645 0.028379878
000370 a7 e1 47 3d 2c 0b 44 bc 22 b4 42 3d 9f 22 77 3c
       0.048799183 -0.011965554 0.04753507 0.015083938
000380 75 10 1b 3c 72 f2 78 bd 5e 5f 03 3e 4d f4 0c be
       0.009464373 -0.06077809 0.12829348 -0.13765068
000390 73 70 0d 3d a6 01 1f 3e 75 f1 e3 3d 99 94 7a 3d
       0.034531068 0.15527973 0.11130039 0.06117687
0003a0 5e 95 04 be eb fe 03 be 1c 16 e6 3c 39 7a 05 be
       -0.12947604 -0.12890212 0.028086714 -0.13034905
0003b0 df 4f 1e 3d db 2f 20 bd 9a 7c 12 3d 87 c7 c3 bd
       0.03865039 -0.03910814 0.03576336 -0.09559541
0003c0 1b 06 29 3c c1 87 47 3e 60 00 da bc 75 6d 08 bd
       0.010316397 0.1948538 -0.026611507 -0.03330751
0003d0 13 1a d2 3c 4b 7f e0 bc 6a f7 14 bd d7 47 82 bd
       0.025647199 -0.027404448 -0.036368765 -0.063613586
0003e0 37 35 ed bd fb 67 8d bd 03 06 7a bc 28 25 f7 bc
       -0.115824156 -0.06904598 -0.015260222 -0.030169085
0003f0 54 55 8f 3d ea f5 d9 3c 0b 84 f9 bc df a0 87 3c
       0.06998697 0.026606519 -0.03045847 0.016556202

bias f4 [32]
000000 04 38 53 bc 76 13 04 be c9 27 48 3e eb 4b 64 be
       -0.012891773 -0.12898049 0.19546427 -0.22294585
000010 97 6d b6 bd 4d 95 34 be 46 97 06 bd e7 0f c1 bd
       -0.08907621 -0.17635079 -0.03285911 -0.09426861
000020 56 bf 75 be cf 37 26 bd 16 c7 8e be 79 fd 00 be
       -0.2399877 -0.040580567 -0.27886266 -0.12596692
000030 60 5a b9 be 13 9d 61 be 4d ff 82 be f2 a4 1f be
       -0.36201763 -0.22032575 -0.25585404 -0.15590265
000040 e9 71 c8 bd 48 2f 47 be 41 46 10 be cc 7a 55 be
       -0.09787352 -0.1945163 -0.140893 -0.20847625
000050 f8 14 b0 be 7b 98 b9 bd bd c7 4b be 5c d5 8c 3d
       -0.34390998 -0.090622865 -0.19900413 0.068766326
000060 7e e4 39 bd 4e 0f 81 be 6b f7 52 be e4 41 49 be
       -0.045383923 -0.2520699 -0.20602195 -0.19654042
000070 2e 69 2c be 80 aa ac bd bb ed be bd a0 8f 71 be
       -0.16836998 -0.08430958 -0.09322687 -0.23589945

weight f4 [64, 32, 5, 5]
000000 ec 01 9f bc fd a0 02 3c 33 ce 00 3d 71 fd f0 bc
       -0.019410096 0.007972953 0.031446647 -0.029417725
000010 76 36 ed bd a8 bb 90 bc 38 b8 70 3d c4 9a ac 3b
       -0.11582653 -0.017667606 0.058769435 0.005267473
000020 e4 41 8d 3d 7d e0 03 3e 01 e3 8e bd 02 82 88 bd
       0.06897333 0.12878604 -0.06976891 -0.06665422
000030 9b e8 15 3b 0d ad 6a bd fb 93 3d be e9 fe 74 3c
       0.002287424 -0.05729394 -0.18513481 0.014953353
000040 cf 22 19 bd af 5e dc 3c e6 3f 96 bd fc dd b2 bc
       -0.03738671 0.026900617 -0.073364064 -0.021834366
000050 6b 23 15 be ee d8 cb bb a7 4f d7 bc d2 f2 08 bc
       -0.14564292 -0.0062209284 -0.026283098 -0.008358674
000060 f4 fa 9c 3d 50 44 bb 3d fc dc b3 3d 29 8e 25 3d
       0.07665053 0.09143889 0.08782384 0.040418778
000070 b8 fc 49 bd 3a d3 bb bd 15 1a d7 3d a4 64 79 3c
       -0.049313277 -0.09171148 0.10503022 0.0152217485
000080 d8 c4 ef bc b2 b1 53 3d 94 e2 a4 3d 26 16 a0 3d
       -0.029268667 0.051683135 0.08051029 0.078167245
000090 bd 72 de bd 3e db b5 3c f6 02 86 bd 25 1a 2b bb
       -0.10861728 0.02219927 -0.065435335 -0.0026108113
0000a0 3b 08 10 3b 64 a5 43 bd 53 67 93 bd bd 85 6f bd
       0.0021977562 -0.04776515 -0.07197442 -0.058477152
0000b0 fc 67 6f bd fa 6b 59 3e c5 57 05 3e 99 ae d0 3d
       -0.058448777 0.21232596 0.13021763 0.10189552
0000c0 99 fa 90 bd e5 05 ab bd d4 4b 87 3d 80 01 0d be
       -0.07079048 -0.08350734 0.0660626 -0.13770103
0000d0 10 7f db 3c 1f fb 2e 3d db bc 06 bd da a4 42 be
       0.026793987 0.042719956 -0.03289495 -0.19008198
0000e0 12 61 8c 3d 24 59 a7 bc 5b 2e db bd 33 b9 a6 bd
       0.06854452 -0.020428248 -0.10702201 -0.08140793
0000f0 d2 91 ef bc 6f 38 2b bd 06 64 8b bd b2 45 b2 3b
       -0.029244337 -0.041801866 -0.06806187 0.0054404372
000100 f0 a9 81 3d 13 7e 6f bc 14 90 83 3c e4 69 43 bc
       0.06331241 -0.014617461 0.016059913 -0.011927102
000110 bc 93 0d 3d 67 cd 17 3d ca 49 3d 3c d7 2d 7f 3d
       0.03456472 0.03706112 0.011553237 0.062299576
000120 cf 8f 64 bd 12 57 55 bd 91 d2 12 bd 97 fa 88 3d
       -0.05580121 -0.05208499 -0.035845343 0.06688421
000130 be 28 d6 bd 73 6d fb bc 29 38 29 bd 5c 88 11 bd
       -0.1045699 -0.030691838 -0.041313324 -0.035530433
000140 44 1d c2 bd 47 e8 6d 3d bd 15 a6 bd a3 26 60 bc
       -0.09478238 0.058082845 -0.08109615 -0.013681087
000150 ea 35 eb bd d9 56 7c bd e2 e0 a1 3d 13 8e 0c 3d
       -0.11484893 -0.061606262 0.07904221 0.03431518
000160 9a 89 38 3d e3 fc 97 3d 3b 1d 13 3d 5d 95 8b 3d
       0.045053102 0.07421281 0.03591655 0.06815598
000170 db ab d9 bb 5f e6 98 bd 75 8c 9b bd 59 3c 05 3e
       -0.006642801 -0.07465815 -0.075951494 0.13011302
000180 fe 72 8e 3d 7c 23 aa 3c 3e c0 38 bd a4 9c 11 be
       0.06955527 0.020768873 -0.04510521 -0.1421991
000190 2b cc d9 3d da 54 ca 3d 04 9f b1 bc 96 4d 87 3d
       0.10634645 0.098794654 -0.02168227 0.06606595
0001a0 07 bf 90 3d 86 c7 da 3d 63 c7 21 be 2a 8b dc 3d
       0.070676856 0.10682587 -0.15798716 0.10768731
0001b0 df 91 cb ba 65 19 ee 3b 92 ff d5 bc 84 04 e8 bc
       -0.0015531144 0.007266211 -0.026122842 -0.028322466
0001c0 b2 83 6d bd 56 3d 0f be 1e 20 20 bd 6d e8 cf bd
       -0.057986923 -0.13988242 -0.03909313 -0.101517536
0001d0 ac b9 08 bc 55 31 cc 3c a9 18 9d 3d a0 ff ce bd
       -0.008345049 0.024925867 0.07670719 -0.1010735
0001e0 fc ae 97 bc d5 63 6b bc b2 c0 af bd 20 c7 a4 bd
       -0.018516056 -0.0143670635 -0.085816756 -0.080457926
0001f0 ad 18 6b 3d db 05 86 bc 74 71 e8 bb aa 8f a1 bd
       0.05739658 -0.016360214 -0.007093603 -0.0788873
000200 e1 73 e4 bb bd ff 09 bd 58 cf e8 3c 75 5a bb bd
       -0.0069718217 -0.033691157 0.028419182 -0.09148113
000210 87 c2 7d bd ef 03 9e 3d 37 96 f8 3d 0e 16 c7 3c
       -0.061953094 0.07715594 0.12138026 0.024302509
000220 98 83 ed 3c a4 87 c1 3d d0 2e cc bb 21 58 73 bd
       0.028993413 0.094496995 -0.0062311664 -0.05941022
000230 31 6a 15 be 0a b5 99 3c c5 c8 bb 3c ea 00 ae bd
       -0.1459129 0.018763084 0.022922883 -0.08496268
000240 4d d0 b0 3d e5 75 4c 3d a1 d1 52 3c fe 48 9e bd
       0.0863348 0.04991712 0.012867362 -0.07728766
000250 97 a2 e0 3c 54 b5 66 3d d2 a5 9e 3d c7 34 f3 bb
       0.027421279 0.05632527 0.077464715 -0.007422063
000260 51 9d 09 be 27 76 db bd 54 36 7b 3d d0 a1 78 bd
       -0.13438918 -0.10715895 0.06133111 -0.06070119
000270 de ff f1 3c e4 59 94 3c 08 0b 13 3e 52 b3 e7 bd
       0.029540952 0.01810927 0.14359677 -0.113134995
000280 11 4c 41 bd 39 70 23 3c 1a 66 13 bc 14 41 07 3c
       -0.047191683 0.009975486 -0.008996511 0.008255262
000290 04 a2 00 be 89 11 fc 3c f7 b0 96 bc 6e e3 20 3c
       -0.12561804 0.03077008 -0.01839493 0.009819848
0002a0 71 40 93 3d 41 3a b8 bd cb b7 a0 3c 64 f7 52 3d
       0.071900256 -0.08995486 0.01961889 0.05150546
0002b0 e1 3d 47 bb 35 e2 90 bd bc 28 8e 3c 8b e0 26 bd
       -0.0030401873 -0.070743956 0.017353408 -0.040741485
0002c0 0f 06 95 3d 85 55 71 bd cd 75 62 bd 60 c1 e7 3c
       0.07276546 -0.05891945 -0.055288125 0.02829045
0002d0 e9 7a bf 3d 18 53 1e 3d d0 ab 5e 3d 0c b8 4a bd
       0.09349615 0.038653463 0.054363072 -0.049491927
0002e0 57 51 49 3d f8 f6 88 3d 4e f7 22 be 0d e2 af bd
       0.049149837 0.066877306 -0.15914652 -0.08588038
0002f0 72 7b 57 3c be 18 59 3d 69 75 75 3d 18 44 94 bd
       0.01315199 0.05300211 0.059926424 -0.0723955
000300 b1 5f b6 bd da e5 8a 3d 86 63 51 bc 63 5f 1d 3e
       -0.089049704 0.06782122 -0.012780076 0.15368418
000310 06 f0 6b bd 76 d4 0e bc 90 25 c1 3b c8 0c 1e bd
       -0.05760195 -0.008717647 0.0058943704 -0.038586408
000320 c6 22 80 3d 7e c3 32 bd 59 e9 1d 3d ef f3 d1 3d
       0.062566325 -0.043643467 0.038552616 0.10251605
000330 80 d6 0d bd 75 8c 3e 3d 87 06 55 bd 92 af 2b 3d
       -0.03462839 0.04652067 -0.052008178 0.041915484
000340 eb 5b b3 bd e8 b1 ac 3d dc bd 17 3d 14 d6 13 3d
       -0.08757766 0.084323704 0.0370463 0.036092833
000350 52 75 71 3c 8e 04 56 3d 6d 90 c9 3d c2 9f 29 3b
       0.014737444 0.052250437 0.09842 0.0025882577
000360 31 b6 a5 3d 13 af fd 3d 18 d4 00 bd 9a 90 79 bd
       0.08091391 0.123869084 -0.03145227 -0.06092892
000370 02 d5 c7 3c 19 8f 6b 3d da 49 cf 3b ab cb 05 3d
       0.024393562 0.057509515 0.0063259425 0.032664936
000380 92 14 a9 bd 01 35 9f bd 5b fa aa bc ad 93 89 3d
       -0.082558766 -0.077737816 -0.020871332 0.0671762
000390 f9 f1 96 bc 4c d4 60 3a e3 a3 86 bb c8 f9 fe 3c
       -0.018425928 0.00085765566 -0.0041088923 0.031124964
0003a0 e5 d1 08 be 71 26 16 3d c2 f2 8e bc 05 75 a7 3d
       -0.13361318 0.036657754 -0.01744974 0.081766166
0003b0 70 6b e4 bc a9 22 3a bc 31 4f c9 3c 21 78 0c 3e
       -0.027883261 -0.011360803 0.024573894 0.137177
0003c0 99 92 ad bd be 4b b2 bd 26 2f 78 bd 8f c7 4b bc
       -0.08475227 -0.08705853 -0.06059184 -0.012437715
0003d0 98 fd ef bd e1 41 dd 3d 36 d7 47 bd 09 9c a5 bc
       -0.11718291 0.10803581 -0.048789226 -0.020216005
0003e0 f2 5f 9e bd 22 54 89 3d b6 06 8a bd 81 1f 07 3b
       -0.07733144 0.067055 -0.06739561 0.0020618143
0003f0 1d f4 bc 3d 7c 72 47 3d 4c bf 01 3e 7a e1 8a ba
       0.092262484 0.048693165 0.1267063 -0.0010595762

bias f4 [64]
000000 c1 a9 3e be d0 0e 3a be f6 66 25 be 3b d9 04 bd
       -0.18619443 -0.18169713 -0.16152558 -0.03243373
000010 5c ff a1 be b1 32 3e be 11 66 02 3d ac bd fa bc
       -0.31640136 -0.18574025 0.03183562 -0.03060802
000020 f9 aa 30 be 01 de 39 be 99 0f 45 bd e9 61 df bd
       -0.17252721 -0.18151094 -0.04811058 -0.10907347
000030 9d 1d 3d 3c 25 b8 01 bc 87 d8 69 be 59 16 81 be
       0.011542705 -0.007917439 -0.22836505 -0.25212362
000040 0f 47 c1 bc 88 24 8d bd 4d a7 7e be 48 9b 14 be
       -0.023593454 -0.068917334 -0.24868508 -0.1451236
000050 73 53 3f bd 34 8a d0 bb e9 56 ea bd 91 4f 8b be
       -0.046710443 -0.0063641313 -0.11442358 -0.27209142
000060 f8 c1 56 be 34 40 30 be ab 02 b9 bd 09 29 be bd
       -0.2097243 -0.17211992 -0.09033712 -0.092851706
000070 4b 40 00 be fe 95 f2 bd 21 f7 25 bd 85 7b 06 be
       -0.12524526 -0.11845015 -0.040518884 -0.13133056
000080 72 76 f2 bd 5e f3 46 be 23 55 2c be c4 8e 14 be
       -0.11838998 -0.19428775 -0.16829352 -0.14507586
000090 f7 66 81 be e6 2b f0 3a d4 97 fc bd 7d 2c 51 bd
       -0.25273868 0.001832363 -0.123336464 -0.051067818
0000a0 28 4a 9b bd 63 91 af bc 23 1c 99 bd 82 c5 88 be
       -0.075825036 -0.02143163 -0.0747607 -0.26713187
0000b0 08 9b c3 bc 56 27 2b bd 14 43 25 be 35 65 36 be
       -0.023877636 -0.04178556 -0.1613887 -0.17812045
0000c0 3d 8b 84 be 60 49 7c bd 44 f1 f5 bd b3 da 86 bd
       -0.2588748 -0.061593413 -0.120089084 -0.06584682
0000d0 0f 5c fd bd 63 04 3f bd ec 6f 73 bd 57 56 cb bd
       -0.123710744 -0.046635043 -0.05943291 -0.099285774
0000e0 7e 1c 2b be 25 95 91 be 06 54 f0 bc f7 32 2d be
       -0.16710088 -0.284341 -0.02933694 -0.16913973
0000f0 d9 03 b5 bd 6c 83 49 be b8 e2 ed bd 6f da c5 bd
       -0.088386245 -0.1967904 -0.11615509 -0.096608035

weight f4 [64, 1024]
000000 c6 54 8e bc 66 da 64 3c 80 9f 74 bc 4b a1 f7 bc
       -0.017374408 0.013968086 -0.014930606 -0.030228278
000010 ad c0 81 bc 20 45 8a 3d 41 9a 51 bc 7d f8 70 3c
       -0.015838945 0.06751466 -0.012793125 0.014707682
000020 19 a0 96 3b f2 8c 9b 3c 86 e9 81 3c 4f b0 ec bc
       0.004596722 0.018988106 0.015858423 -0.028892664
000030 9f 2e f5 3d 93 31 2e 3d 17 bf d2 bd 6c 46 b1 bd
       0.11971783 0.042527746 -0.10290354 -0.0865601
000040 35 95 57 bd 06 9e 31 3d 00 25 a3 3d c9 cc bf 3c
       -0.05263253 0.043363594 0.079660416 0.023413079
000050 49 1b 4a 3d ba c9 3f bc 0a 65 ef 3c 45 f4 80 bc
       0.049342427 -0.01170581 0.029222984 -0.015741477
000060 d6 aa c5 3b 30 fd 0d bc 9a 5b b1 3b 79 5a c0 bc
       0.006032328 -0.008666322 0.005412531 -0.02348064
000070 8c 66 12 bd cb f6 20 bd 99 5f 31 bc be 55 c0 3c
       -0.035742328 -0.03929786 -0.010826015 0.023478385
000080 51 be 0b 3d 9d d2 27 3d 29 b1 1a 3d 6f 1c 82 3d
       0.034117047 0.04097234 0.03776661 0.063530795
000090 12 cc 3b 3d 8d 68 31 3d 0e 77 e4 3c 1a 74 9a bb
       0.045848913 0.043312598 0.027888801 -0.0047135474
0000a0 c7 39 15 bd 88 6a 0a 3c ba 78 c6 3b fc e4 bf 3c
       -0.036432054 0.008448251 0.006056872 0.023424618
0000b0 58 a8 8a bc ec 44 06 bb 15 cc 87 3c 22 11 a7 bc
       -0.016925976 -0.0020487858 0.016576806 -0.020393912
0000c0 0f de 45 3c 29 b4 b0 3d 9f e1 e2 bb 6c cc ea bc
       0.012076869 0.08628113 -0.006923869 -0.02866193
0000d0 c8 78 e6 ba f9 97 a4 3d db 47 0b bd 01 2d f2 bb
       -0.0017583603 0.08036799 -0.034004074 -0.007390619
0000e0 19 15 7a bc 9b 21 c8 3c e1 9c 23 bc 6c e2 07 bc
       -0.015263819 0.024430087 -0.009986133 -0.008293729
0000f0 7b 83 06 b8 ef c5 0f bd 07 5a 1d bd 8c f6 ad bd
       -3.207054e-05 -0.035100874 -0.038415935 -0.08494291
000100 16 ec 48 3b c8 eb ca 3a 2b e4 bc ba cf fe 40 bd
       0.0030658296 0.0015481645 -0.0014411261 -0.047118004
000110 97 48 88 3b 27 36 d5 bb bb 57 0e bc f3 24 0c 3d
       0.004159044 -0.0065066996 -0.008687909 0.034214925
000120 b3 5e 1f bd 20 9f 17 3d fd ab a8 bc 9e 96 50 3d
       -0.03890867 0.037016988 -0.020589823 0.05092489
000130 fb e6 c9 3c 04 db 4b 3c af 5c 10 bd 13 cf 5d 3d
       0.024646273 0.012442354 -0.03524464 0.05415256
000140 46 f9 d8 bb c1 1e 2b 3c b5 94 8b 3c bc 22 f0 3c
       -0.0066215126 0.010444344 0.017038682 0.029313438
000150 24 ed 8b bc 06 fb ff bb 5e aa e6 3b f2 c7 41 3d
       -0.01708085 -0.0078119067 0.0070393523 0.047309823
000160 12 c3 d6 3c 3e e2 f4 3c eb 9b 3a 3b 11 4c 8d 3d
       0.026216064 0.029893037 0.0028474282 0.06899274
000170 58 b0 a8 3c e4 00 36 bd 9c 6d 8b bd 48 ec 6c bd
       0.0205919 -0.044434443 -0.06808016 -0.057842523
000180 ce d7 dc bc e2 f4 3e 3d ae 99 79 3b 10 20 58 bc
       -0.026958372 0.046620257 0.0038085985 -0.013191238
000190 3e 38 0c bd 4a cc a8 3b 7a b2 10 3d 92 d6 95 3d
       -0.034233324 0.0051513063 0.03532646 0.07316317
0001a0 c9 f1 a5 bc f8 12 8c bc 7e 7e 81 bd d8 57 70 bb
       -0.020256894 -0.017098889 -0.063229546 -0.0036673453
0001b0 4d 61 ca 3c 22 14 5f 3d c8 8d e2 bd 44 99 8d bc
       0.0247046 0.05446256 -0.11062199 -0.017284997
0001c0 13 4c d8 3c 3f c0 fc 3b c3 c3 93 bc 84 b7 01 bd
       0.026403463 0.007713347 -0.018037682 -0.031669155
0001d0 ce 14 48 3d f7 ce 49 bc 50 f3 87 3d 00 93 7c 3b
       0.048847966 -0.012317411 0.06638205 0.0038539767
0001e0 76 8a 9d bc 43 bb b2 bb 1a b6 c0 bc 23 e3 36 bd
       -0.019231062 -0.0054544522 -0.023524333 -0.04465021
0001f0 ff ab fa 3c ec 92 cf bc 21 c5 24 3c 86 e1 6e 3d
       0.030599592 -0.025338612 0.010056765 0.058320545
000200 70 8b e2 bc 37 09 8c bd a5 d5 39 bb 12 19 95 3d
       -0.02765438 -0.06837695 -0.0028356102 0.072801724
000210 4e ef 25 3c 3f 2e 4c 3c 0c 37 b9 bc be d7 e6 3c
       0.010127855 0.012462198 -0.022609256 0.028179046
000220 a0 0f 82 3d c4 95 e6 3b ab 95 41 bd 0a 43 25 3c
       0.063506365 0.0070368964 -0.047261875 0.010086784
000230 6a 62 75 3d 12 ea 83 3d 70 56 39 3d da 2e 6e 3d
       0.059908308 0.0644113 0.04524845 0.05815015
000240 ec 06 e1 bc 48 09 d0 3c e7 2f fd 3c 50 f2 f8 3c
       -0.02746912 0.02539505 0.03090663 0.030388981
000250 a5 b9 04 bd c5 a5 8a 3b 1c 36 e4 3c d7 d1 2f bc
       -0.032403607 0.004231187 0.027857833 -0.010731182
000260 92 03 4b 3d d8 43 b3 3b 06 60 30 bd a8 42 b4 3c
       0.04956395 0.005470734 -0.043060325 0.02200444
000270 0f 91 d9 3c 55 76 ce 3b 93 6e 9e bb c2 9b 25 bd
       0.026558427 0.0063007274 -0.004834959 -0.040431745
000280 17 a1 14 3d 51 73 35 bd 0c 37 90 bc 9b 45 de 3d
       0.03628644 -0.044299427 -0.017604373 0.1085312
000290 5b 44 09 bc a4 c6 86 bd a0 fb 06 3d a8 0a 63 3c
       -0.008378114 -0.065808564 0.032954812 0.013857521
0002a0 79 97 fb bc 6c 09 a7 3c ee 98 29 bd 85 f7 a8 3c
       -0.030711876 0.020390235 -0.04140561 0.020625839
0002b0 7a 8b 32 3d 26 04 19 bd 1d b8 43 bd 4e ee 5b 3c
       0.043590046 -0.037357472 -0.047783006 0.0134235155
0002c0 a3 69 1d 3d 91 99 ab bd cb 26 81 bc 70 47 30 3c
       0.03843082 -0.083789 -0.015765568 0.0107592195
0002d0 f8 91 98 3c c9 eb 2a 3d 72 81 13 3d 16 e3 2b bd
       0.01862429 0.04172877 0.03601212 -0.041964613
0002e0 76 d6 12 3d c3 9a 8a 3d 18 39 14 bd c4 0b 0d bd
       0.035849057 0.067678 -0.03618726 -0.03443505
0002f0 9f df c2 bb 0a c7 46 bd d3 d3 98 bd df f4 4e bb
       -0.005947068 -0.048529662 -0.07462277 -0.003157906
000300 f1 b4 87 3b e0 2d 6f 3c 18 0d b5 bd 9f ba 1c bd
       0.004141443 0.01459834 -0.08840388 -0.038263913
000310 cb 99 1a bd d4 47 85 bc c9 6a 0b bd 5a b4 f0 bc
       -0.037744325 -0.016269602 -0.034037385 -0.029382873
000320 7b 6d 70 3c 08 71 1d bc 01 c5 7b ba 45 1d ff 3c
       0.01467454 -0.009609468 -0.0009604246 0.031141886
000330 fb 17 83 3c e6 c2 b7 3b 77 ee 04 bd 1b c4 b4 bc
       0.016002646 0.0056079505 -0.03245398 -0.022066167
000340 5f 99 a4 3d 3a 45 81 3d 9c ff 62 bd 8a cc 8d bc
       0.08037066 0.06312032 -0.05541955 -0.017309446
000350 6c ac 49 bd ed d7 dd bc 19 d9 5d 39 fb 7a 13 bc
       -0.0492367 -0.0270805 0.00021157078 -0.009001489
000360 a2 89 fb bc 37 42 5a bd e7 3d 31 3b d6 0e 00 bd
       -0.030705277 -0.053285804 0.0027044953 -0.03126415
000370 5c a3 93 3b ce 73 a8 3c 1d 1a 8d bd c5 f9 e0 3c
       0.004505558 0.020563032 -0.06889746 0.02746285
000380 a1 8d ad ba 54 c2 00 3d fc b0 42 3c ee c8 25 bd
       -0.0013241061 0.031435326 0.011883017 -0.040474825
000390 92 71 00 3d d7 ef 26 3c af e3 83 bc 5c 93 a5 bc
       0.03135831 0.010189018 -0.016099779 -0.020211868
0003a0 be 1c e5 3c 90 a6 b4 3c 95 4d 2f 3c 34 e9 e6 3c
       0.027967807 0.02205208 0.010699649 0.028187372
0003b0 99 0d 4a bd cb 7c 80 3c 47 17 95 3c ed 37 0c 3d
       -0.049329374 0.015684506 0.018199576 0.034233022
0003c0 cc dc 6e b9 10 cd ef 3c cc 90 f0 3d 56 b4 55 3c
       -0.00022779702 0.029272586 0.11746368 0.013043484
0003d0 5f 65 34 bd 6b 3d e6 bc 40 c5 57 bd 7c cb 93 bb
       -0.044041988 -0.028105458 -0.052678347 -0.004510341
0003e0 9c ca 32 3d e2 ae 97 3c 5a 78 40 bd 66 77 7f 3b
       0.043650255 0.018516008 -0.046989776 0.003898108
0003f0 02 9d cc bb cc 42 36 bb d1 28 44 bc ad 5d d8 bb
       -0.0062443027 -0.002781081 -0.011972622 -0.006602964

bias f4 [64]
000000 5b a7 56 bd 34 17 bc 3d 9c 6d 9f 3b d4 4a cb bd
       -0.052405696 0.09184113 0.0048653614 -0.09926382
000010 3b 05 60 ba 43 b4 58 3c 70 01 7a 3d 3f 8e 1d bd
       -0.0008545701 0.0132265715 0.061036527 -0.038465735
000020 97 31 b3 3d 77 5f 1d 3d 4d cd 00 3c 51 a3 86 bc
       0.08749693 0.03842112 0.0078614475 -0.016435297
000030 df 3d 36 3d e5 00 02 bd c8 41 2c bd 6f fb f7 bc
       0.0444926 -0.031739134 -0.04205492 -0.03027126
000040 ee 91 71 bd 2d ad 66 3d d1 6b 72 3d 5a 44 01 3e
       -0.05897706 0.056317497 0.059184853 0.1262373
000050 48 0b 23 3d 5c 1d 54 3b 3a 46 12 3c 38 65 ad bd
       0.03980568 0.0032366132 0.008927876 -0.084665716
000060 d7 b1 8a bb e0 18 ae bc af cb 97 3c 92 19 9a 3d
       -0.004232626 -0.021252096 0.018529741 0.075244084
000070 c3 02 49 3d 06 d6 27 bd 6e 34 2d bd fd 13 b6 3c
       0.0490749 -0.040975593 -0.04228633 0.022226328
000080 97 a5 80 3d 8a ca 3d bd 3b 0c 1f bd c1 9a e1 bc
       0.06281584 -0.046335734 -0.038830023 -0.027539613
000090 f9 ae ec bc 2a 31 a5 bc 36 6b 3f bc 7d 28 ca 3c
       -0.028892027 -0.020165045 -0.011683276 0.02467751
0000a0 ba d7 e5 bb 4c b1 fb 3c 15 2a 10 bd 4b 1f 1e 3d
       -0.007014242 0.03072419 -0.035196383 0.038604062
0000b0 a1 eb 93 3d 65 5a b4 bd f3 1a 32 bd 5c 94 b7 bc
       0.07222677 -0.08806304 -0.043482732 -0.02240961
0000c0 8e db ad 3b 42 aa 4b 3d 34 af 64 3d f5 71 b5 bc
       0.005305714 0.049722917 0.05583115 -0.022149066
0000d0 24 aa 8a bd af 28 95 3d 16 27 0e bc f9 4d 75 3d
       -0.06770733 0.072831504 -0.008676311 0.059888814
0000e0 24 c2 10 bd fb 92 84 bb d3 28 7e bd 1c aa 4e bc
       -0.035341397 -0.0040458417 -0.06205065 -0.012613799
0000f0 16 1c 8b bc 5d e3 0c 3d ae af 77 3c 21 82 76 bd
       -0.016981166 0.034396518 0.015117569 -0.060182694

weight f4 [10, 64]
000000 bd fa 50 be 94 db 95 bc 21 f0 73 bc b8 76 64 3e
       -0.20408149 -0.01829318 -0.014888794 0.22310913
000010 09 e6 4a be b6 f9 47 be 5e 0f 14 3e 39 e1 cd 3d
       -0.19814314 -0.19528851 0.14458987 0.100527234
000020 32 d5 2d be 01 d1 b8 3e da 8e de bd f9 8a b2 be
       -0.16975859 0.36096957 -0.108670905 -0.34871653
000030 41 9a 10 bc 7e 16 05 3e e9 ad f8 3d fa 32 a3 be
       -0.0088258395 0.12996861 0.12142546 -0.3187483
000040 96 b0 8f 3d 15 76 5f 3e 3c 0c 2c 3d 8f 6b 86 bc
       0.07016103 0.21822388 0.042003855 -0.01640871
000050 55 be 8a 3d db 0d 51 3e 80 8d a9 be 2b d6 b3 3d
       0.06774584 0.20415442 -0.33115768 0.08781084
000060 bb ff d0 3e 34 55 f9 3d e5 44 8d bd 7f 5c 7f be
       0.40820107 0.12174454 -0.06897906 -0.24937628
000070 42 1f b8 3e bb df c0 be d6 40 51 3d d0 29 20 be
       0.35961348 -0.37670693 0.051087223 -0.1564095
000080 3b 9f a0 3d cf d1 ea 3d fc bc 80 3e 97 35 db 3d
       0.07842871 0.11465799 0.25144184 0.10703581
000090 46 8c 9f 3e db f3 94 3e 88 a9 a6 be 5e f8 ba 3e
       0.31161708 0.29092297 -0.32551217 0.36517614
0000a0 cc 04 e1 3d 9d 0b b7 be 53 73 56 3b 8e 2e e1 3d
       0.10987243 -0.35751048 0.0032722547 0.10995208
0000b0 b9 bb 53 bc 52 eb f3 3d eb c9 24 3e 2c 95 df 3d
       -0.012923175 0.11910118 0.1609265 0.10917124
0000c0 21 e6 28 3e 6d 30 a5 bd 8e ad 23 be 6c f7 26 be
       0.16494037 -0.08065877 -0.15984175 -0.16305321
0000d0 fb 5d b9 3d ba 5f 62 be 1f 17 41 be fe 8f d8 bd
       0.090511285 -0.2210683 -0.18856476 -0.10574339
0000e0 38 1d aa 3e b7 40 40 3e 9a 2a c7 3e 6e 64 96 bc
       0.33225417 0.18774687 0.3889969 -0.018358435
0000f0 81 66 f4 3d 6f e1 74 3d 54 f9 d3 bd f2 f9 ab be
       0.119336136 0.059785303 -0.1035029 -0.3358913
000100 7e 00 3a 3e d0 1f 29 be 6a 96 40 be 85 28 d4 3e
       0.1816425 -0.16516042 -0.18807378 0.41437164
000110 ef c9 fe 3d b8 04 9e 3e 53 87 9f be 65 e5 4c 3d
       0.124408595 0.30862975 -0.31157932 0.050023455
000120 c5 61 29 be 41 84 5b be 18 ff 3b bc 95 5d 5e 3e
       -0.16541202 -0.2143717 -0.011474393 0.21715386
000130 8f 95 dd bd 15 42 52 be fc 14 59 3e 8e ee af 3e
       -0.10819542 -0.20533021 0.21199411 0.3436169
000140 82 bd 11 be 6e 28 10 3e 51 d0 ae be 0b da 7f be
       -0.14232448 0.14077923 -0.34143308 -0.2498552
000150 0b 2d 28 be dd a8 55 3e fd 91 e3 bd 65 1b 51 3e
       -0.16423433 0.20865197 -0.111118294 0.20420606
000160 9f 9a ac be 62 13 87 3e 58 4d a8 bc 47 79 f5 be
       -0.33711717 0.26381975 -0.020544693 -0.4794409
000170 15 be f6 bd ec 48 98 3e 58 20 73 3e 3f 6c db be
       -0.12047974 0.29743135 0.23742807 -0.42856023
000180 94 73 20 be 4d 1f 3d be c6 82 95 3d 3e 1a 2c 3e
       -0.1566909 -0.18468972 0.07300334 0.16806886
000190 25 23 a3 be 22 2e 58 3e 65 bb 8d be 95 45 5e be
       -0.3186275 0.21111348 -0.27682033 -0.21706231
0001a0 98 94 b4 3e 6b e0 96 be 7d 7b 8b 3e 05 fe 1a be
       0.35269618 -0.29468092 0.27242652 -0.15135963
0001b0 7d c5 62 3e c3 4d e5 3e 3f 6c c4 3c b6 49 34 bd
       0.22145648 0.4478589 0.023977397 -0.04401561
0001c0 47 48 81 3d db a8 36 be df 80 77 3e 8a 45 c7 3b
       0.06312614 -0.17837851 0.24170254 0.0060812877
0001d0 7c bd b1 3e e9 55 19 be 7c c5 c5 3d 56 6c 22 bd
       0.34714878 -0.14974178 0.09656808 -0.0396541
0001e0 7e 86 3f be ca eb 9a bd 2c 53 3c 3c 8c 5a 4a 3e
       -0.18703648 -0.075645044 0.011494439 0.19761103
0001f0 f7 2c b9 bd 2e 20 4a 3e e7 7b 83 3e af b2 6d 3e
       -0.090417795 0.19738838 0.25680467 0.23212694
000200 b1 4b 92 be 70 12 ba be e8 97 34 be 20 10 99 be
       -0.28573373 -0.36342192 -0.17636073 -0.29895115
000210 17 39 98 3e 3a bd 19 be 9e 1c 15 3e 2a 5f bd 3d
       0.29731056 -0.1501359 0.14561698 0.09246667
000220 cb 1a 87 3b 24 8a 92 3e ca e9 8b bd 4a 19 74 be
       0.004123067 0.28621018 -0.06831701 -0.23837772
000230 2c 34 58 be 40 7e 53 3e f6 12 eb bc df d1 79 bd
       -0.21113652 0.2065363 -0.028695565 -0.060991164
000240 aa b1 53 be bf 6b a1 be 4d ef 2a 3e ad 83 ac 3e
       -0.20673242 -0.31527516 0.16692849 0.3369421
000250 26 61 3e 3c 3e d2 80 be bb f6 4f 3d 54 f4 9b 3e
       0.011619842 -0.25160402 0.05077241 0.30459845
000260 6a 10 a6 be bd 3a 0b bd 2b 19 9b 3c 33 43 10 be
       -0.32434398 -0.033991564 0.0189329 -0.14088134
000270 75 56 d4 3e 33 da 29 be 54 91 0f bf 6d 0f 31 3e
       0.4147221 -0.16587143 -0.5608113 0.1729104
000280 5c 6b 66 3e 7c 45 96 bb 0b f2 60 be e5 6b 2d bd
       0.22501892 -0.00458592 -0.21967332 -0.042339224
000290 a0 47 84 bd 8e 5d 9e 3e 8a 51 80 bd 0b 4b bf 3c
       -0.06458974 0.30930752 -0.06265552 0.023351213
0002a0 75 06 d4 be 44 44 95 3e 5a c6 94 3e db 15 95 3e
       -0.41411176 0.29153645 0.2905758 0.29118237
0002b0 7e 1d 03 3e a3 92 cc bd 39 6a 72 bd 4b bb 39 be
       0.12804219 -0.09988906 -0.059183333 -0.18137853
0002c0 3a a3 01 be 14 7d 3e 3d db 2e 0b 3e 9b 30 e1 bd
       -0.12659922 0.046506003 0.13592093 -0.10995599
0002d0 22 b3 6a be 8c 0d 5b bd bf 63 92 be 1a e8 cb 3e
       -0.22919896 -0.053479716 -0.28591725 0.39825517
0002e0 b6 e1 6c 3e 71 15 09 3e 03 62 00 be 7e 4d 04 bb
       0.23132977 0.13387085 -0.12537389 -0.002018779
0002f0 39 c2 75 be af 63 1b 3d fd 67 fe bc 34 b0 d0 bd
       -0.23999871 0.037936863 -0.031055445 -0.10189858
000300 47 11 04 3e 37 94 e5 bd 30 40 17 bd e5 69 a7 3c
       0.12897216 -0.1120991 -0.03692645 0.020436237
000310 48 e0 84 be 59 97 90 bd cf 37 16 be f9 7f 55 3d
       -0.25952363 -0.07060117 -0.14669727 0.052123997
000320 b6 e5 6b 3e 0f f4 71 be 4b 51 73 bd 19 a3 4a 3e
       0.23036847 -0.23628257 -0.0594037 0.1978878
000330 99 62 70 3e 12 1b 80 3c 98 34 5d bd a7 cf 73 3e
       0.23475112 0.015637908 -0.054005235 0.23809682
000340 93 2c 56 3e 19 00 6c 3e 22 2b 04 3e 33 2f 0c 3d
       0.20915441 0.23046912 0.12907079 0.0342247
000350 56 cf ad bd f9 1a a3 3c 78 50 c7 3c 39 97 a4 be
       -0.08486812 0.019910323 0.024330363 -0.32146624
000360 25 ec 13 be e4 4e 4e be 3c df 32 be 52 a8 84 3e
       -0.1444555 -0.20147282 -0.1746797 0.25909668
000370 ed d7 1a 3e fa 74 60 3d 14 85 3c be 85 09 aa 3e
       0.15121432 0.054799058 -0.1841014 0.33210388
000380 b0 69 17 3e 91 2c 94 bd c2 78 3d be 44 54 5e bd
       0.1478641 -0.07235063 -0.18503097 -0.05427958
000390 17 88 64 3e 6b 2e c2 bc 10 45 4b 3e 31 3a 35 3e
       0.22317539 -0.023703774 0.19850564 0.1769798
0003a0 77 4e 0f 3e 72 11 50 be 3b 69 38 3e a5 85 82 3e
       0.13994776 -0.20319155 0.18008892 0.25492588
0003b0 a1 bb 01 3e e5 16 f5 bd 6d 75 6a be 50 5c 18 be
       0.12669231 -0.119672574 -0.22896357 -0.14878964
0003c0 6c 6d bf bd 0d 48 1f be bd d1 9f be 33 83 3d 3e
       -0.093470424 -0.15554829 -0.31214705 0.1850708
0003d0 21 d1 22 bd 65 a7 8f 3e 04 c3 8d be 99 8c 93 3e
       -0.039750222 0.280574 -0.27687848 0.28818205
0003e0 b3 f2 98 be a7 60 90 be 0f 78 8d 3c 6e df 75 3e
       -0.29872665 -0.2819874 0.017269162 0.24011013
0003f0 24 89 14 3e 40 25 04 3d 6b 65 8a bd 84 f6 50 be
       0.1450544 0.032262087 -0.06757625 -0.20406538

bias f4 [10]
000000 5c d7 7c 3d 6b 29 bd bd 38 85 d8 3b eb 31 1d 3d
       0.06172882 -0.092364155 0.006607678 0.038377684
000010 65 c8 57 3e 81 59 77 3b a6 64 6e 3d ca a3 56 bd
       0.21072538 0.0037742557 0.058201455 -0.052402295
000020 e8 86 4c bd f4 36 15 be
       -0.049933344 -0.14571744
